____________________________________________________________________________________________________
Layer (type)                     Output Shape          Param #     Connected to                     
====================================================================================================
unet_input (InputLayer)          (None, 256, 256, 1)   0                                            
____________________________________________________________________________________________________
unet_conv2D_1 (Conv2D)           (None, 128, 128, 64)  640         unet_input[0][0]                 
____________________________________________________________________________________________________
leaky_re_lu_1 (LeakyReLU)        (None, 128, 128, 64)  0           unet_conv2D_1[0][0]              
____________________________________________________________________________________________________
unet_conv2D_2 (Conv2D)           (None, 64, 64, 128)   73856       leaky_re_lu_1[0][0]              
____________________________________________________________________________________________________
batch_normalization_1 (BatchNorm (None, 64, 64, 128)   512         unet_conv2D_2[0][0]              
____________________________________________________________________________________________________
leaky_re_lu_2 (LeakyReLU)        (None, 64, 64, 128)   0           batch_normalization_1[0][0]      
____________________________________________________________________________________________________
unet_conv2D_3 (Conv2D)           (None, 32, 32, 256)   295168      leaky_re_lu_2[0][0]              
____________________________________________________________________________________________________
batch_normalization_2 (BatchNorm (None, 32, 32, 256)   1024        unet_conv2D_3[0][0]              
____________________________________________________________________________________________________
leaky_re_lu_3 (LeakyReLU)        (None, 32, 32, 256)   0           batch_normalization_2[0][0]      
____________________________________________________________________________________________________
unet_conv2D_4 (Conv2D)           (None, 16, 16, 512)   1180160     leaky_re_lu_3[0][0]              
____________________________________________________________________________________________________
batch_normalization_3 (BatchNorm (None, 16, 16, 512)   2048        unet_conv2D_4[0][0]              
____________________________________________________________________________________________________
leaky_re_lu_4 (LeakyReLU)        (None, 16, 16, 512)   0           batch_normalization_3[0][0]      
____________________________________________________________________________________________________
unet_conv2D_5 (Conv2D)           (None, 8, 8, 512)     2359808     leaky_re_lu_4[0][0]              
____________________________________________________________________________________________________
batch_normalization_4 (BatchNorm (None, 8, 8, 512)     2048        unet_conv2D_5[0][0]              
____________________________________________________________________________________________________
leaky_re_lu_5 (LeakyReLU)        (None, 8, 8, 512)     0           batch_normalization_4[0][0]      
____________________________________________________________________________________________________
unet_conv2D_6 (Conv2D)           (None, 4, 4, 512)     2359808     leaky_re_lu_5[0][0]              
____________________________________________________________________________________________________
batch_normalization_5 (BatchNorm (None, 4, 4, 512)     2048        unet_conv2D_6[0][0]              
____________________________________________________________________________________________________
leaky_re_lu_6 (LeakyReLU)        (None, 4, 4, 512)     0           batch_normalization_5[0][0]      
____________________________________________________________________________________________________
unet_conv2D_7 (Conv2D)           (None, 2, 2, 512)     2359808     leaky_re_lu_6[0][0]              
____________________________________________________________________________________________________
batch_normalization_6 (BatchNorm (None, 2, 2, 512)     2048        unet_conv2D_7[0][0]              
____________________________________________________________________________________________________
leaky_re_lu_7 (LeakyReLU)        (None, 2, 2, 512)     0           batch_normalization_6[0][0]      
____________________________________________________________________________________________________
unet_conv2D_8 (Conv2D)           (None, 1, 1, 512)     2359808     leaky_re_lu_7[0][0]              
____________________________________________________________________________________________________
batch_normalization_7 (BatchNorm (None, 1, 1, 512)     2048        unet_conv2D_8[0][0]              
____________________________________________________________________________________________________
activation_1 (Activation)        (None, 1, 1, 512)     0           batch_normalization_7[0][0]      
____________________________________________________________________________________________________
conv2d_transpose_1 (Conv2DTransp (None, 2, 2, 512)     2359808     activation_1[0][0]               
____________________________________________________________________________________________________
batch_normalization_8 (BatchNorm (None, 2, 2, 512)     2048        conv2d_transpose_1[0][0]         
____________________________________________________________________________________________________
dropout_1 (Dropout)              (None, 2, 2, 512)     0           batch_normalization_8[0][0]      
____________________________________________________________________________________________________
concatenate_1 (Concatenate)      (None, 2, 2, 1024)    0           dropout_1[0][0]                  
                                                                   batch_normalization_6[0][0]      
____________________________________________________________________________________________________
activation_2 (Activation)        (None, 2, 2, 1024)    0           concatenate_1[0][0]              
____________________________________________________________________________________________________
conv2d_transpose_2 (Conv2DTransp (None, 4, 4, 512)     4719104     activation_2[0][0]               
____________________________________________________________________________________________________
batch_normalization_9 (BatchNorm (None, 4, 4, 512)     2048        conv2d_transpose_2[0][0]         
____________________________________________________________________________________________________
dropout_2 (Dropout)              (None, 4, 4, 512)     0           batch_normalization_9[0][0]      
____________________________________________________________________________________________________
concatenate_2 (Concatenate)      (None, 4, 4, 1024)    0           dropout_2[0][0]                  
                                                                   batch_normalization_5[0][0]      
____________________________________________________________________________________________________
activation_3 (Activation)        (None, 4, 4, 1024)    0           concatenate_2[0][0]              
____________________________________________________________________________________________________
conv2d_transpose_3 (Conv2DTransp (None, 8, 8, 512)     4719104     activation_3[0][0]               
____________________________________________________________________________________________________
batch_normalization_10 (BatchNor (None, 8, 8, 512)     2048        conv2d_transpose_3[0][0]         
____________________________________________________________________________________________________
dropout_3 (Dropout)              (None, 8, 8, 512)     0           batch_normalization_10[0][0]     
____________________________________________________________________________________________________
concatenate_3 (Concatenate)      (None, 8, 8, 1024)    0           dropout_3[0][0]                  
                                                                   batch_normalization_4[0][0]      
____________________________________________________________________________________________________
activation_4 (Activation)        (None, 8, 8, 1024)    0           concatenate_3[0][0]              
____________________________________________________________________________________________________
conv2d_transpose_4 (Conv2DTransp (None, 16, 16, 512)   4719104     activation_4[0][0]               
____________________________________________________________________________________________________
batch_normalization_11 (BatchNor (None, 16, 16, 512)   2048        conv2d_transpose_4[0][0]         
____________________________________________________________________________________________________
concatenate_4 (Concatenate)      (None, 16, 16, 1024)  0           batch_normalization_11[0][0]     
                                                                   batch_normalization_3[0][0]      
____________________________________________________________________________________________________
activation_5 (Activation)        (None, 16, 16, 1024)  0           concatenate_4[0][0]              
____________________________________________________________________________________________________
conv2d_transpose_5 (Conv2DTransp (None, 32, 32, 256)   2359552     activation_5[0][0]               
____________________________________________________________________________________________________
batch_normalization_12 (BatchNor (None, 32, 32, 256)   1024        conv2d_transpose_5[0][0]         
____________________________________________________________________________________________________
concatenate_5 (Concatenate)      (None, 32, 32, 512)   0           batch_normalization_12[0][0]     
                                                                   batch_normalization_2[0][0]      
____________________________________________________________________________________________________
activation_6 (Activation)        (None, 32, 32, 512)   0           concatenate_5[0][0]              
____________________________________________________________________________________________________
conv2d_transpose_6 (Conv2DTransp (None, 64, 64, 128)   589952      activation_6[0][0]               
____________________________________________________________________________________________________
batch_normalization_13 (BatchNor (None, 64, 64, 128)   512         conv2d_transpose_6[0][0]         
____________________________________________________________________________________________________
concatenate_6 (Concatenate)      (None, 64, 64, 256)   0           batch_normalization_13[0][0]     
                                                                   batch_normalization_1[0][0]      
____________________________________________________________________________________________________
activation_7 (Activation)        (None, 64, 64, 256)   0           concatenate_6[0][0]              
____________________________________________________________________________________________________
conv2d_transpose_7 (Conv2DTransp (None, 128, 128, 64)  147520      activation_7[0][0]               
____________________________________________________________________________________________________
batch_normalization_14 (BatchNor (None, 128, 128, 64)  256         conv2d_transpose_7[0][0]         
____________________________________________________________________________________________________
concatenate_7 (Concatenate)      (None, 128, 128, 128) 0           batch_normalization_14[0][0]     
                                                                   unet_conv2D_1[0][0]              
____________________________________________________________________________________________________
activation_8 (Activation)        (None, 128, 128, 128) 0           concatenate_7[0][0]              
____________________________________________________________________________________________________
conv2d_transpose_8 (Conv2DTransp (None, 256, 256, 1)   1153        activation_8[0][0]               
____________________________________________________________________________________________________
activation_9 (Activation)        (None, 256, 256, 1)   0           conv2d_transpose_8[0][0]         
====================================================================================================
Total params: 30,626,113
Trainable params: 30,615,233
Non-trainable params: 10,880
____________________________________________________________________________________________________
PatchGAN summary
_________________________________________________________________
Layer (type)                 Output Shape              Param #   
=================================================================
discriminator_input (InputLa (None, 64, 64, 1)         0         
_________________________________________________________________
disc_conv2d_1 (Conv2D)       (None, 32, 32, 64)        640       
_________________________________________________________________
batch_normalization_15 (Batc (None, 32, 32, 64)        256       
_________________________________________________________________
leaky_re_lu_8 (LeakyReLU)    (None, 32, 32, 64)        0         
_________________________________________________________________
disc_conv2d_2 (Conv2D)       (None, 16, 16, 128)       73856     
_________________________________________________________________
batch_normalization_16 (Batc (None, 16, 16, 128)       512       
_________________________________________________________________
leaky_re_lu_9 (LeakyReLU)    (None, 16, 16, 128)       0         
_________________________________________________________________
disc_conv2d_3 (Conv2D)       (None, 8, 8, 256)         295168    
_________________________________________________________________
batch_normalization_17 (Batc (None, 8, 8, 256)         1024      
_________________________________________________________________
leaky_re_lu_10 (LeakyReLU)   (None, 8, 8, 256)         0         
_________________________________________________________________
disc_conv2d_4 (Conv2D)       (None, 4, 4, 512)         1180160   
_________________________________________________________________
batch_normalization_18 (Batc (None, 4, 4, 512)         2048      
_________________________________________________________________
leaky_re_lu_11 (LeakyReLU)   (None, 4, 4, 512)         0         
_________________________________________________________________
disc_conv2d_5 (Conv2D)       (None, 2, 2, 512)         2359808   
_________________________________________________________________
batch_normalization_19 (Batc (None, 2, 2, 512)         2048      
_________________________________________________________________
leaky_re_lu_12 (LeakyReLU)   (None, 2, 2, 512)         0         
_________________________________________________________________
disc_conv2d_6 (Conv2D)       (None, 1, 1, 512)         2359808   
_________________________________________________________________
batch_normalization_20 (Batc (None, 1, 1, 512)         2048      
_________________________________________________________________
leaky_re_lu_13 (LeakyReLU)   (None, 1, 1, 512)         0         
_________________________________________________________________
flatten_1 (Flatten)          (None, 512)               0         
_________________________________________________________________
disc_dense (Dense)           (None, 2)                 1026      
=================================================================
Total params: 6,278,402
Trainable params: 6,274,434
Non-trainable params: 3,968
_________________________________________________________________
____________________________________________________________________________________________________
Layer (type)                     Output Shape          Param #     Connected to                     
====================================================================================================
disc_input_0 (InputLayer)        (None, 64, 64, 1)     0                                            
____________________________________________________________________________________________________
disc_input_1 (InputLayer)        (None, 64, 64, 1)     0                                            
____________________________________________________________________________________________________
disc_input_2 (InputLayer)        (None, 64, 64, 1)     0                                            
____________________________________________________________________________________________________
disc_input_3 (InputLayer)        (None, 64, 64, 1)     0                                            
____________________________________________________________________________________________________
disc_input_4 (InputLayer)        (None, 64, 64, 1)     0                                            
____________________________________________________________________________________________________
disc_input_5 (InputLayer)        (None, 64, 64, 1)     0                                            
____________________________________________________________________________________________________
disc_input_6 (InputLayer)        (None, 64, 64, 1)     0                                            
____________________________________________________________________________________________________
disc_input_7 (InputLayer)        (None, 64, 64, 1)     0                                            
____________________________________________________________________________________________________
disc_input_8 (InputLayer)        (None, 64, 64, 1)     0                                            
____________________________________________________________________________________________________
disc_input_9 (InputLayer)        (None, 64, 64, 1)     0                                            
____________________________________________________________________________________________________
disc_input_10 (InputLayer)       (None, 64, 64, 1)     0                                            
____________________________________________________________________________________________________
disc_input_11 (InputLayer)       (None, 64, 64, 1)     0                                            
____________________________________________________________________________________________________
disc_input_12 (InputLayer)       (None, 64, 64, 1)     0                                            
____________________________________________________________________________________________________
disc_input_13 (InputLayer)       (None, 64, 64, 1)     0                                            
____________________________________________________________________________________________________
disc_input_14 (InputLayer)       (None, 64, 64, 1)     0                                            
____________________________________________________________________________________________________
disc_input_15 (InputLayer)       (None, 64, 64, 1)     0                                            
____________________________________________________________________________________________________
PatchGAN (Model)                 [(None, 2), (None, 51 6278402     disc_input_0[0][0]               
                                                                   disc_input_1[0][0]               
                                                                   disc_input_2[0][0]               
…
